HW1/cartpole_base-moving_avg_lr-0.003_g-0.95_seed-1_policy.pt (torch, 6216 bytes, 4 tensors)

net.0.weight f4 [128, 4]
00000000: 4318 713e 459e 31be ce26 c7bd f9ad 4c3e
00000010: d3b7 c5be 7677 ec3e 3f73 063f 88b2 053f
00000020: 8399 b73c 25dc 21be f76b ccbe d3c4 3dbe
00000030: 00f4 403e a3c8 8bbe b273 33bd 7034 9ebc
00000040: ab1d 8d3d f928 4abc 735a f13e 846f 303e
00000050: ccf3 babd 21ef 9bbe af5b 3ebe dc0f 34be
00000060: 98af 9abd 05fb 833d 394f 803e 8fa4 763e
00000070: e891 f7be 3891 ea3e 66c5 c73e da98 0f3f
00000080: af22 883e 1f18 0ebf 6e9b bcbe 8ccf 363c
00000090: 536e c13e 39ff 1cbe 3e6b 423e 0b64 74be
000000a0: 35a8 033f fa2a afbd e2a1 8a3f 16c4 563e
000000b0: 99a3 4bbe 69c1 6c3e 33b4 94be 6658 5b3e
000000c0: e999 39be f9db c6bd 7cfa 06bf 47bf 2abe
000000d0: 9cb1 993e 4323 26be 137e 033f aa32 e03e
000000e0: 0967 be3d fbb7 6fbd cfcf 5f3f 8470 a93e
000000f0: c740 75be b749 fa3e 2629 503f bf50 1c3f
00000100: c88d 21be b1b8 943d 74f3 a83c 067c a33d
00000110: 94a5 4fbe 00a0 8abe 39be 903e 7c6b a2bd
00000120: 1d6d 4f3e 12c3 283e 442d 2e3f d9de 493e
00000130: d9db 153e f3ce 9c3e 964e 28be 980d 923e
00000140: 0a20 aebe 2cb6 8dbe e976 f03e 288d f13d
00000150: 189f 563e 0c23 8dbe 079b 62bf 9278 2c3e
00000160: 90b1 c2bd 11ad 883e bb26 32be ccad 1fbf
00000170: a7bf 983c b2d8 063d c48b 78be b797 15be
00000180: 5db9 723d 6760 c0bd 5e49 5ebf ed5f d5be
00000190: b966 053f a11b 033d 7336 513f 6768 963e
000001a0: b1c9 3bbe ea63 babe 296e fa3e 034f 4b3d
000001b0: 6ccb c63e 6095 923e 8155 563f aa3e 173f
000001c0: 156e 0c3f 9c51 37be 2183 173f cf06 083f
000001d0: beb4 9e3e 5624 923e 655e c6be b962 b5be
000001e0: fb54 23be 8c60 0b3e 6bdf d93e b70a d2be
000001f0: 8f6b 833e eabc 37be d9de ecbe 4058 dabd
00000200: d58b 7a3e 3088 bf3e e598 48be 5d86 5c3e
00000210: c47b ec3e 9214 ec3e 3fee 703f b840 103f
00000220: a34b 2e3e 2898 84bc bf10 a5be 8caa a1be
00000230: f080 01be 020d 0a3e 27bc 833e 83bf d53e
00000240: c33a 243e 374a 9abd e0a2 6a3e 9b14 1b3e
00000250: 951b 963e 3fc8 003f 9ab3 fe3e 40cc 2d3f
00000260: 17b3 1abd 9668 23be 37bb 88bf 3eab 09bf
00000270: 6831 9ebe d4c3 72be 76df d43e 6d8d fabc
00000280: 644f a7be af60 813e cd04 893d dabf 813e
00000290: 438c 17be 3c46 f43d 010a 45be 963a 25bc
000002a0: f6b0 c0be 740e 31be fa08 4ebd 9442 793e
000002b0: f4a4 f43d 46fc bf3e 04e1 913f 6962 0f3f
000002c0: b2c3 923e d085 353e 5d5c b53e bd42 203f
000002d0: 9ec1 1fbe 8200 43bd ea50 fcbe 0960 06be
000002e0: e7b6 61be 8dfd 023f bf60 3bbf 979f 1abf
000002f0: 9fcc c4bb 38dd 9dbe f9e4 ff3d 31fb 72be
00000300: 9aaa 6abe 4eba dabb 6b36 c33e 3ab9 3cbe
00000310: 8f77 313e e816 773e 7285 303f 0859 60be
00000320: 3955 223e d330 a0be b774 fd3e c3f0 20be
00000330: cf8c b33e a2fb 223c 8bce c03d 0087 2b3d
00000340: e6dd b83d e735 bd3e 3734 3a3f de55 d03e
00000350: 023d c0be 4bbe fe3e 34ab 673f 6186 1d3f
00000360: 385e bd3e eaaf aabe b091 54bc 2be5 e63e
00000370: 9158 b6be 7b5b cb3e 8e13 edbe b715 90be
00000380: 3b10 7f3e e461 eabd 551a aebc 4174 173e
00000390: 2ba0 bb3e 5347 e53e e3e0 d6be 3444 24bf
000003a0: 62d7 d33e 6879 1dbe 010c 35bf 2c34 8bbd
000003b0: 99da 6dbe e308 c13e 6666 39bb aa17 1fbf
000003c0: 7201 d9be 639a 57bd b548 2a3e 9169 d23b
000003d0: 5b9f acbe 29d9 d6bd 9296 0cbf 649f 96be
000003e0: 3c3c ccbe 7702 803e ab70 f73e f97a 883d
000003f0: 9d50 653c 4455 5a3e d819 62be b9a7 ecbe
0.23544411 -0.17345531 -0.09724198 0.1998824 -0.3861681 0.4618489 0.525196 0.5222554
0.022412067 -0.15806635 -0.3992612 -0.18532114 0.18843079 -0.2730151 -0.043811508 -0.019312114
0.06890424 -0.01233887 0.4713932 0.1723004 -0.09128532 -0.30455878 -0.18589662 -0.17584175
-0.07553023 0.064443626 0.25060442 0.24086212 -0.48353505 0.45813918 0.3901779 0.5609261
0.2658896 -0.55505556 -0.36837333 0.0111578815 0.37779483 -0.15331735 0.18986222 -0.23866288
0.5142854 -0.08553119 1.0830653 0.20973238 -0.19886626 0.23120655 -0.2904373 0.2142044
-0.18125118 -0.09709925 -0.5272596 -0.16674529 0.30018318 -0.16224389 0.5136425 0.43788654
0.09296996 -0.058525067 0.87426466 0.33093655 -0.23950492 0.48884365 0.8131279 0.6106071
-0.15776742 0.072617896 0.0206239 0.0798264 -0.20278007 -0.27075195 0.28270128 -0.07930657
0.20256467 0.16480663 0.6803782 0.19713916 0.14634646 0.3062664 -0.16436228 0.28525996
-0.3400882 -0.2767805 0.4696572 0.117945015 0.20959127 -0.275658 -0.885178 0.16842869
-0.095065236 0.2669454 -0.17397587 -0.6237457 0.018646074 0.0329215 -0.24272066 -0.14608656
0.059258807 -0.09393387 -0.868307 -0.41674748 0.5210987 0.03200877 0.8172371 0.29376528
-0.18338658 -0.36404353 0.4891217 0.0496359 0.38827074 0.2862959 0.8372422 0.5907999
0.5485547 -0.17902225 0.5918446 0.5313539 0.3099727 0.28543347 -0.38743892 -0.35426882
-0.15950386 0.13611048 0.42553267 -0.410238 0.25667998 -0.17943159 -0.4626377 -0.106613636
0.24467404 0.3740859 -0.19589575 0.2153563 0.46188176 0.46109444 0.94113535 0.5634875
0.1702104 -0.016185835 -0.3223934 -0.3157543 -0.12646842 0.13481525 0.25729486 0.41747674
0.16038041 -0.075336866 0.22913694 0.15144579 0.29317918 0.5030555 0.497464 0.67889786
-0.03776845 -0.15957865 -1.0682133 -0.5377692 -0.3089707 -0.23707515 0.41576737 -0.030585015
-0.32677758 0.25269076 0.06690369 0.25341684 -0.147996 0.11927459 -0.19242097 -0.010084769
-0.3763501 -0.1729067 -0.05030153 0.24341804 0.11945525 0.37497157 1.1396794 0.56009537
0.2866493 0.17726827 0.3542203 0.62601835 -0.15601203 -0.047607906 -0.49280483 -0.13122572
-0.22042428 0.5116814 -0.731945 -0.60399765 -0.006005838 -0.3083284 0.12494845 -0.23728634
-0.22916642 -0.0066750413 0.38127455 -0.18430033 0.17330764 0.24129832 0.6895362 -0.21908963
0.15852822 -0.3128725 0.4950311 -0.15716843 0.35068366 0.009947689 0.09414395 0.041876793
0.09026699 0.36955187 0.72735924 0.4069051 -0.37546545 0.49754557 0.9049561 0.6153317
0.36985946 -0.33337337 -0.012974188 0.45096716 -0.35614446 0.39718232 -0.46303982 -0.28141567
0.24908535 -0.114444524 -0.02125279 0.14790441 0.36645636 0.4478098 -0.4196845 -0.6416657
0.41375262 -0.15378344 -0.7072144 -0.0679706 -0.2322792 0.37702093 -0.0028289794 -0.62145483
-0.42383915 -0.05263747 0.16629298 0.006421276 -0.3371533 -0.10490639 -0.5491725 -0.2941848
-0.39889705 0.2500188 0.48328146 0.0666408 0.0139962705 0.21321589 -0.22080171 -0.46221712

net.0.bias f4 [128]
00000000: b5bd dabe 11e3 943e d634 713e b02b 03bf
00000010: 869e c2be 4d4d debe 37a8 a6be cb6e 6b3d
00000020: bc52 f6be ebe2 e3be b4e4 203e 370c 8cbe
00000030: fcfd 98be 1200 d3be 120a 853e 56ad 463e
00000040: 1f1a 95be 982c d5be 28ba e33d 4c12 9e3d
00000050: 447d 0c3e a273 0d3e 6258 05be 661c f5be
00000060: 0c69 a63e c0b7 f13d 52f4 fbbe fd50 cd3e
00000070: 5acb 923e 9c5e e8be e622 99be 6d75 88be
00000080: cfcf ccbe 6af7 993e 8ed2 fcbe d610 c83e
00000090: 4554 87be 3a1b b03e d6f4 813e f860 73be
000000a0: 859b 2f3e 6232 00bf 21f6 9cbe db42 543e
000000b0: dabf c93e f5db 86be 83e9 80be 0ffd adbe
000000c0: 9d21 a4be 513f 8ebe 0f6e 7bbe 9b73 81be
000000d0: fe01 513e 0a88 263e 3ffd cdbe 6eb5 ecbe
000000e0: 201d 08be 23d4 06bd 379b 843e 0776 f0bd
000000f0: 3f4d cbbe 808a c8be 7313 98be 9483 fdbd
00000100: 65d4 44bd 99e7 05be d853 7b3e 533e 52be
00000110: 399d 8d3e 9898 003e 1d7b 66be 5fff d63e
00000120: d796 5c3e 5017 b3be 9461 99be c583 673e
00000130: c330 863e 9829 af3e c596 e43d 3238 923e
00000140: 70be 713e 8280 e3bd b18b a8be 5b9b a83e
00000150: d57a 463e bb3c 92be dead 403e 6c22 d63e
00000160: c8a7 893e 1400 cfbd 12ca f83e 6a80 aa3e
00000170: d2f1 93be 2fbb edbe d05f b13c 49c1 823e
00000180: b1af c6be e13f 8d3e 8db4 3bbe 6549 453e
00000190: cf43 89be ca3e 633e 5eb9 a9bc e2a7 5e3e
000001a0: 212d 62bd 86fc 613e b3e5 ec3e b701 733e
000001b0: 9c0d 023e aa5d 1a3e 7d78 2d3e 006d 1b3d
000001c0: de30 9e3e 94eb d63e 522e 65be 6ee7 9a3e
000001d0: 5f7e d6bd 9edc e13e de60 de3e bc7c d2be
000001e0: aa1d e83d e2bb 7fbe 5373 84be 6b99 26be
000001f0: 864e d2bc 9e4d babe 90b1 f9be 629a aebe
-0.4272286 0.29079488 0.23555312 -0.51238537 -0.3801157 -0.4341835 -0.32550213 0.057478707
-0.48109996 -0.44509062 0.15712243 -0.2735307 -0.29881275 -0.4121099 0.25984246 0.1940206
-0.2912149 -0.41635585 0.11119491 0.077183336 0.1371966 0.13813642 -0.13021997 -0.4787323
0.3250202 0.11802626 -0.4920984 0.40100852 0.2867077 -0.4538468 -0.29909438 -0.2665209
-0.40002295 0.30071574 -0.4937939 0.39075345 -0.2643148 0.34395772 0.25382107 -0.2376746
0.1714917 -0.5007688 -0.3065653 0.20728628 0.39404184 -0.2633969 -0.25178155 -0.3398213
-0.32056895 -0.27782682 -0.24553703 -0.25283512 0.20410916 0.16262832 -0.40232274 -0.4623217
-0.1329236 -0.032917153 0.2589967 -0.11741262 -0.39707372 -0.39168167 -0.2970234 -0.12378612
-0.048054118 -0.13076629 0.24543703 -0.20531587 0.27659014 0.1255821 -0.22507901 0.41991708
0.21541916 -0.34978724 -0.2995726 0.2260886 0.26209077 0.3421142 0.111615695 0.285585
0.23607802 -0.11108495 -0.32919076 0.32931027 0.19382794 -0.2856196 0.18816325 0.41823137
0.2688582 -0.10107437 0.48591667 0.33301097 -0.28895432 -0.46431872 0.021652132 0.2553809
-0.38805917 0.27587798 -0.18330593 0.19266279 -0.26809546 0.22191921 -0.020718273 0.2174373
-0.05521882 0.22068986 0.46268997 0.23731123 0.12700504 0.15074793 0.16940494 0.037945747
0.30896658 0.41976607 -0.22380951 0.30254692 -0.10473322 0.4411363 0.4343328 -0.4111079
0.11333783 -0.24974015 -0.25869235 -0.16269462 -0.025672209 -0.36387342 -0.48768282 -0.3410216

net.2.weight f4 [2, 128]
00000000: 5f57 c7bc 78ea 23be 3f84 be3d cded 263d
00000010: 61a0 373d 8417 b5bc c762 26bd a6f0 dfbd
00000020: e50b 72be 327b 6cbd 3557 16be d874 e43a
00000030: 0281 e5bd 6a7a 7dbd 2307 dcbd 1066 a9be
00000040: 4a08 2abd 4776 813c 5862 1cbe a11c 80bd
00000050: 91be bcbc a3f4 fd3d 2969 c83d 5449 3abd
00000060: 757e 533e 84e1 15be 63ca 333d 11e5 4cbe
00000070: 6c71 12be 2c16 82bb 2418 1d3e 595f eebc
00000080: aa69 f5bc 369d 38be 94a7 0c3d 3b37 eb3b
00000090: cb5d 87bd 0842 6fbe a9a6 ce3e c334 a9bd
000000a0: 8b28 04bd 8e9f e13d 3f77 95bd 0f04 95be
000000b0: cea0 9fbd 1fab f7bd 94bb 593e a1cb 06be
000000c0: dd79 923c f7e5 8cba 896e 95bb 4b68 adbd
000000d0: f1f0 97be d25e 97be 0ec9 91bd 2284 183d
000000e0: f01d 313c f838 ce3c e18d 9b3d 1f93 1d3e
000000f0: 1de7 d8bd 9b06 99bd d0d6 02bd 4135 0c3e
00000100: a074 3e3d 6536 72bd c151 a33e cb6d 3d3b
00000110: d0ca 043e 6b37 8f3d 94b4 2ebd a28c 13bd
00000120: 98b8 853e 6912 063d 1f3b c23c 30d0 153e
00000130: 4424 82bd 04f6 893d 16d9 493e dad4 7cbe
00000140: 358c 843e a2fc 3d3d 9333 e7bc facd 4abd
00000150: b23a fa3d d6e5 b63c 8101 bd3e 52c1 30bd
00000160: 69ed 77bd ca2c 193b 1ca5 2d3e 6680 ae3e
00000170: 5b40 883c 3547 22bd 5303 41bc 1ae8 8a3d
00000180: b334 d03c 3dd7 29be 87e4 d7bc 74b1 49be
00000190: 4c6f 8d3d c3ba 433e a217 2ebc f7f7 a33c
000001a0: 27c2 253a de9c 41be 64fd 583e 17ad b33e
000001b0: c817 333e 438d 14be c401 74b9 aafb 00be
000001c0: d16d ac3d 5993 4abe f35e d9bc f1a9 073d
000001d0: 87b1 2a3e b4e0 523e 4c67 67be 00ab 3b3d
000001e0: 898c e5bd 7112 9bbd 7c08 123e b6e7 d2bd
000001f0: 42a0 17bd 74a2 fe3c bd28 1abe ec76 4a3c
00000200: 3289 283b 2a38 2b3e 94f9 c2bd bc51 313d
00000210: 5388 8dbd 29b1 ed3d 5e0c 673d f42c 253e
00000220: 0cac 2f3e 9822 8abc 6eed e53c 6c3a 71bc
00000230: 2c97 6bbb ddb7 0f3d b595 283d 19c1 903e
00000240: 2c35 8abd 69d1 7e3c 5345 8d3d 6fbd d43c
00000250: 9ea3 183c a90a 4ebc bb3b 4ebe e265 4ebd
00000260: afda 0dbe 9cc2 2d3e aa61 f23d 0546 253e
00000270: 6c56 fc3d 9246 c0bd 9cb0 f1bd 3cf7 0bbd
00000280: 474a 01bd 8878 8e3e f37b 7e3c 20d3 e63d
00000290: 7b1e 99bc b351 233e a378 a6be 4ea2 e33d
000002a0: 031d 583c b3c0 a7bd 2187 c43c f1fc 4b3e
000002b0: 800a f93d 3d4d 013d df63 55be e79f 113e
000002c0: ead8 c73b 0059 993c 1bff af3d ad69 d43c
000002d0: 01c5 983e 3b7c af3e 1dd8 b6bc 72ca a9bd
000002e0: d60c 103d b2a8 c6bd 50bb 0fbd cb78 e6bd
000002f0: d2bf 49bc 4ac2 77bb ba51 f83c 4ff9 a5bc
00000300: ef6a 2fbd 0fb9 6dbd 8fa2 5ebe 6ff3 5d3d
00000310: 8537 6f3c 7947 64be 01e1 6c3b 0370 b33d
00000320: f90b 17be 08f9 fabd 8286 1abe 875e 15be
00000330: 4c05 9e3d 4db9 dbbd ea4a 85be 19a7 453e
00000340: fcd7 59be 4d09 863d cae8 1bbd 2578 36bd
00000350: 98b8 18be 3ac3 c03c 4d87 c7be c4c0 163d
00000360: a741 f5bb 53ba d8bd 39cc 0bbe 4470 aabe
00000370: a974 ec3c bb1c 05bd 6651 703c e7a7 203d
00000380: 2556 b53a 258c 143e 14f6 ec3c caaf ae3d
00000390: 8f64 02be 1d92 4abe 7801 1cbd f97b b63c
000003a0: 5e2e 78bd c253 7f3e 9de0 15be a263 9fbe
000003b0: d140 46be 331b 153e 8ac1 c838 ad1d fa3d
000003c0: 0a2f 88bd fd08 973d b497 ba3c ea83 cc3d
000003d0: 6ccb fabc a839 51be 6ceb 723e 0c61 06ba
000003e0: c06f 413d 5a47 803d 61ba cabc acd5 c83d
000003f0: b8df 7f3d 2622 d03c a8ff 823d 3c13 28bd
-0.024333654 -0.16007411 0.09302568 0.04075413 0.044830684 -0.02210594 -0.040621545 -0.10934572
-0.2363735 -0.057734676 -0.14681704 0.0017429842 -0.11206247 -0.06188432 -0.10743549 -0.3308568
-0.04151181 0.01580347 -0.1527189 -0.062554605 -0.023040088 0.124001764 0.09785683 -0.045480087
0.20653708 -0.14636809 0.043894183 -0.20009257 -0.1430108 -0.0039699282 0.1534124 -0.0290982
-0.029957611 -0.18028721 0.034339502 0.007178215 -0.066096865 -0.23365033 0.40361527 -0.082620166
-0.032265227 0.11016761 -0.07298135 -0.2910466 -0.07794343 -0.12093186 0.21262962 -0.13163616
0.017880375 -0.0010749687 -0.004560296 -0.08467158 -0.2967601 -0.2956453 -0.07118426 0.037235387
0.01081036 0.02517365 0.07595421 0.15388153 -0.10590956 -0.07471963 -0.031943142 0.1369219
0.04649794 -0.059133906 0.3189831 0.0028904553 0.12967992 0.06992992 -0.04265268 -0.03602279
0.26117396 0.0327324 0.023709832 0.14630198 -0.06354573 0.06736377 0.19711718 -0.24690571
0.2588822 0.046383508 -0.028222835 -0.04951284 0.122182265 0.022326391 0.3691521 -0.043153115
-0.060529146 0.0023372644 0.16957515 0.34082335 0.01663225 -0.03961869 -0.011780578 0.06782551
0.025415754 -0.16586013 -0.026354088 -0.19696599 0.06905994 0.19114213 -0.010625752 0.0200157
0.00063231814 -0.18907496 0.21190411 0.35092995 0.1748954 -0.14507012 -0.00023270311 -0.12596002
0.08419383 -0.19782771 -0.026534533 0.033121053 0.16669284 0.2059353 -0.22597998 0.045817375
-0.112084456 -0.07571877 0.14261049 -0.102981016 -0.037018068 0.031083323 -0.15054603 0.012357455
0.002571654 0.16720644 -0.095202595 0.04329084 -0.069107674 0.11606056 0.05640828 0.1613043
0.17155474 -0.016862199 0.028067317 -0.0147234015 -0.003594826 0.035087455 0.041158397 0.28272322
-0.06748423 0.015552857 0.06897988 0.025969235 0.009316353 -0.012575784 -0.20139973 -0.05039013
-0.13852952 0.16968769 0.11835034 0.16139992 0.12321171 -0.0938846 -0.11801264 -0.034171328
-0.031564977 0.27826333 0.0155324815 0.11270738 -0.018691292 0.15949135 -0.32513914 0.111149415
0.013190511 -0.08191051 0.023990216 0.19920708 0.12160206 0.0315678 -0.20838879 0.14221154
0.006098856 0.018719196 0.085935794 0.025929296 0.29837802 0.34274468 -0.022319848 -0.082905665
0.03516849 -0.09700145 -0.035090744 -0.11253508 -0.0123138 -0.0037805014 0.030312408 -0.020260481
-0.04282659 -0.058037814 -0.21741699 0.054187234 0.014600639 -0.2229289 0.0036144855 0.08761599
-0.14750661 -0.1225453 -0.15090373 -0.1458684 0.07715854 -0.10728703 -0.26033717 0.19302024
-0.21273798 0.06544743 -0.0380638 -0.044548173 -0.14914167 0.023530591 -0.38970414 0.03680493
-0.007484633 -0.105824135 -0.13652124 -0.33288777 0.028864222 -0.032498103 0.014667844 0.039222624
0.0013834877 0.14506586 0.028925933 0.08529623 -0.12733673 -0.197823 -0.03808734 0.022275912
-0.060591094 0.24934295 -0.14636464 -0.311307 -0.19360663 0.14561157 9.5727926e-05 0.122126915
-0.06649597 0.07374761 0.022777416 0.09986098 -0.030614577 -0.2043215 0.23722619 -0.00051261554
0.047225714 0.06263609 -0.024747076 0.0980638 0.062469214 0.025406908 0.06396419 -0.04103397

net.2.bias f4 [2]
00000000: 8456 21bd 8dc5 8f3d
-0.03938915 0.07020102
