cartpole_base-none_lr-0.01_g-0.95_seed-1_policy.pt (torch, 6096 bytes, 4 tensors)

net.0.weight f4 [128, 4]
00000000: d582 5d3f c7f0 05be 0b59 d0bd cc91 2e3f
00000010: 82c8 0fbf 5fe8 853e 83e2 253f d632 733f
00000020: d809 67be d2c4 1bbe 927b bb3e 85e3 c23c
00000030: 30ff 3a3e e486 47be 3051 15bd 4060 38bd
00000040: b068 fd3d 87ca 493d 4b8a c53e 1dac d53d
00000050: 750c 30bf 5d30 f8be ef16 953e 1347 23be
00000060: 6945 00bf 4461 2dbe 3480 4c3f f9b5 aa3e
00000070: 1bed 24bf 4aa6 c9bd 05a7 1cbe 88bc e8bd
00000080: 43ce a83e 9571 c8be e176 c9be 91f6 d9bc
00000090: 0513 b13e 6b6c 27be c0a6 9a3e 8967 1bbe
000000a0: 1d54 7d3f ec1e 31be 9eae 263f e0c3 fe3e
000000b0: a098 f0bd 7473 7c3e aafd 2bbe e193 eb3e
000000c0: 370b 3dbf ad6c dcbe 5ad9 adbe 6aea 0b3d
000000d0: 5112 3c3f 7008 28bf d88b afbd 29b9 543f
000000e0: a7e3 40be a235 4ebd fbfc 293f 0cfb b03d
000000f0: 0846 dcbe 74a9 e13e 528b ec3d d4e4 fb3e
00000100: 908b b2be 3b29 5d3e 4f07 bc3e a578 023f
00000110: d1c4 37bf 45b9 0ebf 562e 873e 4d75 5ebe
00000120: d44d 523e c7a1 013f 3a59 d93f aa0b 2d3f
00000130: 031b 683f 6c89 1c3f 6189 a63d a55e 943d
00000140: 5707 a43d 94ae 99be 256a 0b3e 2564 d73e
00000150: c8c1 da3d e7fb 4dbf 29cb 61bf 33ca ed3e
00000160: 25a8 f93d 1894 963e 4c02 503e 92f0 b3be
00000170: c9d5 5c3e 9e6b 0dbc cb18 52be f6c8 dfbd
00000180: 16ae 613e a59b d9bd 7581 e9be 287d 83be
00000190: 3256 473f 677f c13e 1593 983f 71bc 033f
000001a0: f2a1 12bf 4205 f1be cebc 493f 913d 1c3e
000001b0: 1e36 f13e 0d0f 453f fa80 d73f 599f 873f
000001c0: 0611 b63e 288d 2e3d ae47 b23f 03ae 683f
000001d0: 85e3 8f3e c3d5 053e 983b 86be 3f1a 31be
000001e0: ddbf 0abf 4c03 87bd 07dd 0a3f b9c6 bfbe
000001f0: 0181 983e 6a85 f5bd 922b 8dbe 3b2f 3e3e
00000200: 16ba 903d c8a5 943e bef7 f9be 0948 d93e
00000210: 51dc 183f 2089 843f 3e9d d93f 913b 043f
00000220: 577b da3e cea1 60be f9ae 3abe cf3a 78be
00000230: 52ee 3a3e 5eec a63e 5f6c b3be 15aa 683e
00000240: 8cbf c33e 7548 063e 6b72 ab3e 46f1 87be
00000250: c6b0 013f 7c6d 893f e549 993f 42f9 183f
00000260: 955a 163d 34c0 4dbf 70f2 f3bf 2eaa 67bf
00000270: 377f 16bf d732 c9be 9b59 783e e78f 86be
00000280: 8d9d 2cbf 9d0f 18be e521 713f 7bcd 0f3f
00000290: 8363 5bbf 5c26 d9be 4bd0 1abd c8ff f83d
000002a0: 62b9 35bf c6b5 a9be efa4 003f c30a 3d3f
000002b0: 1a01 c63e 1e15 683f 1227 c53f 6e2e e43e
000002c0: a166 de3e 82f1 f43e b62b 533f 1e31 363f
000002d0: d718 27bf 0da2 d9be c9dc adbe c059 193e
000002e0: 3690 81be c15f d13d 93d2 babe 5101 f93d
000002f0: 7291 6e3d 9638 65be 3a53 6e3e 417e ecbd
00000300: 4dc9 44bf f446 68be adbe 763f fb65 bd3d
00000310: 3739 833e 4d8c f3bd 61a5 a93d 264c 3abe
00000320: f503 193d b2ed 7cbe 0ada b53e 241d 39be
00000330: 4dba 1f3f 3f28 c5be 0f3a a8bd ae2a 423f
00000340: 6c6a 143e 6d36 0f3f 0958 b13f b03b 3a3f
00000350: df9c 4ebf e0eb a03d 7e69 db3e 5a5d 803e
00000360: 1023 27be 12e5 f8be 15df 203f 304e e73e
00000370: a507 7ebe 8726 bb3d 4713 d4bd 89ba 9e3d
00000380: 9372 013f 5f5a c7bd 6421 b83d 9f08 f63e
00000390: dc1d 073e e72b 043f 45f8 9fbe 93a8 28bf
000003a0: 6780 293f f9a3 d93c 8c9d 38bf 7e97 6abe
000003b0: 867e 633b 7525 993e 4ebb d63e 07c1 c7bc
000003c0: 8c15 2bbf f419 68be 0c12 6e3e 14ed 5fbd
000003d0: 072c 39bf 88d7 09bf 9f94 9bbe f6d9 423e
000003e0: c0ee 5cbd 08c0 333f 2305 7e3f c3f5 303f
000003f0: 23dc f33b ee23 c73d 696f 04bd 5b7c e9bd
0.8652776 -0.1308013 -0.101732336 0.6819122 -0.56165326 0.26153848 0.64798754 0.94999444
-0.22562349 -0.152118 0.36617714 0.02379013 0.18261409 -0.1948505 -0.03645438 -0.045013666
0.12373483 0.04926541 0.38582072 0.10433219 -0.6876901 -0.48474398 0.2911906 -0.15945081
-0.5010591 -0.16931635 0.7988312 0.3334196 -0.64424294 -0.0984617 -0.15298088 -0.113640845
0.32969865 -0.39149156 -0.3934851 -0.02660683 0.34584823 -0.16349952 0.30205345 -0.15176214
0.9895647 -0.17296952 0.65110195 0.49758816 -0.11747861 0.24653417 -0.16795984 0.4601126
-0.7384524 -0.43051663 -0.3395489 0.0341591 0.7346545 -0.65637875 -0.08571595 0.8309503
-0.18836842 -0.050344117 0.6640164 0.086416334 -0.4302218 0.44074595 0.11550011 0.4919802
-0.34872103 0.2159776 0.36724326 0.5096534 -0.71784693 -0.5575145 0.2640254 -0.21724434
0.20537502 0.5063748 1.6980355 0.6759592 0.90666217 0.6114719 0.08131672 0.072446145
0.080092125 -0.30016005 0.1361471 0.42068592 0.10681492 -0.804625 -0.8820062 0.46443328
0.12190274 0.29409862 0.20313376 -0.35144478 0.21565928 -0.008631615 -0.2051727 -0.10927002
0.22039065 -0.1062539 -0.4560658 -0.25681424 0.778659 0.37792513 1.1919886 0.51459414
-0.5727836 -0.47074324 0.7880372 0.1525786 0.471116 0.7697609 1.6836236 1.0595504
0.35559863 0.042615086 1.3928125 0.9089052 0.2810327 0.13069825 -0.2621734 -0.17295168
-0.5419901 -0.06592426 0.5424351 -0.374563 0.29785922 -0.11988337 -0.27572304 0.18572704
0.07066743 0.2903273 -0.48821825 0.4243777 0.59711176 1.0354347 1.7001112 0.5165339
0.42672226 -0.21936724 -0.1823081 -0.24241184 0.18254974 0.3260221 -0.35043618 0.22721131
0.38232076 0.13113578 0.3348573 -0.26551265 0.5066036 1.0736537 1.1975676 0.5975534
0.03670748 -0.80371404 -1.9058361 -0.9049405 -0.58787864 -0.392966 0.24252932 -0.26281664
-0.67427903 -0.14849706 0.94192344 0.56172913 -0.8569872 -0.42412078 -0.0377963 0.121581614
-0.70985997 -0.33146495 0.5025167 0.73844546 0.38672715 0.9065722 1.5402548 0.44566673
0.43437675 0.47840506 0.8248857 0.71168697 -0.6527228 -0.42506447 -0.33957508 0.14975643
-0.25305337 0.10223342 -0.3648878 0.12158454 0.058244176 -0.22384867 0.23273936 -0.115475185
-0.7686966 -0.22683316 0.963847 0.09247967 0.2562959 -0.118919946 0.08283497 -0.18193111
0.03735729 -0.24700049 0.35517913 -0.18077523 0.6239365 -0.38507268 -0.08214199 0.75846374
0.14493722 0.5594242 1.3854991 0.72747326 -0.80708116 0.078574896 0.42853922 0.25071222
-0.16321969 -0.48612267 0.62840396 0.4517684 -0.24807604 0.09138208 -0.10355239 0.077504225
0.5056545 -0.09734034 0.08990744 0.48053452 0.13194984 0.5162949 -0.31244102 -0.65882224
0.6621155 0.026567446 -0.721154 -0.22909352 0.0034712865 0.2991139 0.41939777 -0.024384035
-0.6682975 -0.2266615 0.23249072 -0.054669455 -0.72332805 -0.538445 -0.30386826 0.19028458
-0.053938627 0.7021489 0.9922659 0.69125 0.007442014 0.0972365 -0.03233281 -0.11400672

net.0.bias f4 [128]
00000000: af32 d0be 6504 4bbe ac9c 07bf fc92 fbbe
00000010: 5331 e3be b9a2 23bf 0b70 11bf f5b2 b9be
00000020: a27a 11bf 8716 eabe 120f cabe b7a0 c2be
00000030: f47e fdbe f3be 01be 5b7b bebe 45ef 86be
00000040: 4060 00bf c802 2fbf 4dba 1abd 383c bdbc
00000050: 1cb5 8abe ae0f 613f e237 17bd 400a 04bf
00000060: d793 56be 61a3 a7be aea4 19bf 8f93 19bd
00000070: a38e a03e 7fae 2dbf fd98 c2be 9f24 bbbe
00000080: 3499 e8be 039f 303d c226 0abf c5cd 98be
00000090: cc36 c4be cbb9 5b3d 7c3d ee3e 0f25 d7be
000000a0: 86f0 23be 96c5 2dbf f631 59be d22a 27bd
000000b0: 283e 32be 19ea 10bf 493b 4abf fe27 ccbe
000000c0: 81c4 17bf 0b50 0bbf 5fa3 79be a607 603d
000000d0: 0e76 18be 1672 1ebf 528c d1be 558f 22bf
000000e0: 5fff 76be 6449 99be 79a1 993c 62f7 c1be
000000f0: 8c9e d3be 62c6 22bf c2ef 85be fa5e 93be
00000100: 95d4 abbe efd3 cebc 0206 053f eda7 3fbf
00000110: 7f40 35be 8357 40be 2a35 a9be 11c0 093f
00000120: ffbc c83e 255a 01bf 65d1 efbe 54a9 1a3f
00000130: 5dbf 4bbe a904 18be 318b b73d f7a6 edbe
00000140: 4f8a f3be 1ced 74be d9f2 0abf dc9b e83e
00000150: 76e2 5ebe 8c77 22bf d35e 8e3e ca3a e2be
00000160: a77e 193f a092 17be 1c3b 333e 9a31 e83e
00000170: 14ca cdbe ec92 11bf b681 33be afd6 fabe
00000180: 3881 a73e c873 39be 7c2e 77bd 1be4 36bd
00000190: 8782 cabe bac4 93be dfc4 89bd 538a c4bd
000001a0: dcaa 3fbe c772 01be 133e 933e 6cdb a43e
000001b0: 393d 003e bc2a bcbe 750b a2be 69cd 123d
000001c0: 9217 03be b1db d6bc f838 09bf 7a19 f2be
000001d0: 5286 84be 5d54 be3e 3fc7 83bc 3ad7 18bf
000001e0: d4ec d8be b009 15bf 33de aabe 0255 bfbe
000001f0: fa25 19bf 3aa4 0ebf 9f5d 35bf 9492 73bd
-0.4066367 -0.19825895 -0.5297344 -0.49135578 -0.4437357 -0.6392017 -0.5681159 -0.36269346
-0.5682775 -0.45720312 -0.39464623 -0.3801324 -0.4951092 -0.12670498 -0.37203488 -0.26354423
-0.50146866 -0.6836362 -0.037775327 -0.023100004 -0.270913 0.8791455 -0.03691853 -0.5157814
-0.20954834 -0.32741836 -0.60016906 -0.03749424 0.31358823 -0.67844385 -0.38007346 -0.36551377
-0.45429385 0.043120395 -0.5396539 -0.2984449 -0.38323057 0.053643983 0.46531284 -0.4202046
-0.16009721 -0.6787962 -0.21210465 -0.04081232 -0.17406523 -0.56607205 -0.7899671 -0.39874262
-0.59284216 -0.5441901 -0.24378727 0.054694794 -0.14888784 -0.6189283 -0.40927368 -0.6349996
-0.24120854 -0.29938805 0.018753754 -0.3788405 -0.413319 -0.6358396 -0.26159483 -0.287834
-0.33560625 -0.025247542 0.5196229 -0.7486561 -0.17700385 -0.18783383 -0.33048373 0.53808695
0.39206693 -0.50528175 -0.46839443 0.60414624 -0.19897218 -0.14845528 0.089620955 -0.46416447
-0.4756646 -0.23918575 -0.54276806 0.4543141 -0.21766075 -0.63463664 0.2780672 -0.44185477
0.5995888 -0.14802027 0.17503017 0.45350343 -0.40193236 -0.5686481 -0.1752995 -0.48991916
0.32715774 -0.18110573 -0.060347065 -0.044651132 -0.3955271 -0.28861028 -0.06727003 -0.09596696
-0.18717521 -0.1264144 0.28758296 0.32198656 0.12523355 -0.36751354 -0.31649366 0.035840426
-0.1280196 -0.026227804 -0.5360255 -0.47285062 -0.25883728 0.3717374 -0.016086219 -0.5970341
-0.42368186 -0.58217907 -0.3337265 -0.37369543 -0.5982357 -0.5571934 -0.7084598 -0.05946596

net.2.weight f4 [2, 128]
00000000: 2e77 19bf 6167 b0bc 1043 05be 8f24 933d
00000010: 4859 a53b 524e 24be dbeb 7ebe 56e3 42be
00000020: 0abb 563c 839b c0bd fbb4 a2be 9816 c13c
00000030: a4df cdbe 5fe4 24bf 5dab 073d b295 6cbe
00000040: e836 11be 4df0 a9be 2de2 35be ce5c b2be
00000050: f2ce 3cbe 9ff3 3f3f 08f5 abbe 6c36 263d
00000060: a0ba 3d3d ee56 87be 665f 5ebe 96b8 01be
00000070: e082 763e 629f adbd 8187 adbd 243a ebbc
00000080: b063 8ebd 2a01 aabe 4b55 c53d d3ae c4bc
00000090: 06bf 4e3d 7f3a d6be 4895 3f3f 28c2 0bbf
000000a0: a8c7 42bd a55e b2be 790b 46be 0608 cebe
000000b0: c74f d13d 09f4 bebe a058 6dbd 2ac5 1cbd
000000c0: 7e3f a0be 4f2b a9bd 898a 743c 51d1 11bf
000000d0: 49c7 d5bc cc70 9cbe 66af e8bd dff2 e3bd
000000e0: 83f1 16be 8cb7 9abe 16db 0e3e 083e 083c
000000f0: f43c 8dbe c47e 9ebe dc17 b6be 5349 fcbc
00000100: 8d0f fabe ac9b 34bf cb6b 103f 01d9 983c
00000110: a535 90bd 1442 6bbe 9645 8cbd d9bf c03e
00000120: 5038 ff3e 79e6 873c 2483 9c3d 443a cf3e
00000130: 5d18 753d 7eab 91bd dade d83c 9257 b2be
00000140: d338 933d 5882 113e 5522 acbe 6928 b23e
00000150: 8dd8 23be 90b5 fcbe a824 da3e 22c7 42be
00000160: 7268 e53e 5d66 d5be 8f80 c83d d0ad 163f
00000170: 916a 86be 7411 f6be e95b 643d 1636 ddbc
00000180: e5c4 633f fab0 38bc 7a65 f03d b852 f8be
00000190: cee8 28bd 2b1f 35be 331f 3abe 9c01 1d3d
000001a0: 574b 7ebe 173d 0c3c ebec 323e 10d7 fd3e
000001b0: a516 023e 7474 17bf e4a8 c03c 6b6b b1be
000001c0: 4160 93bd fb19 4fbd d0c8 06be f7b4 273e
000001d0: bd41 91bc 9fb0 bc3e e7f5 00bf a353 c5bd
000001e0: 0576 dabd 8f69 5bbe 35a1 20bd 6088 cbbe
000001f0: 0f75 903d 836a 05be bfd6 d9be a549 32bf
00000200: ffe4 133f 3cd5 ea3c 6008 033e e8d9 473c
00000210: e436 f0bc f741 823e 218b 873e f217 783e
00000220: 0697 9fbd 3f55 9f3c 82d0 4b3e 40b6 15bd
00000230: 2ba8 923e 3508 1e3f de91 cbbd d04b 3b3e
00000240: 0569 063d 36fe b93e dd44 c03d 84a1 9f3e
00000250: 55c1 2e3e 2f6d 23bf ebe2 6d3e 65b9 0bbe
00000260: 82a8 b13c 7e47 933e 6841 c23e 3433 b43d
00000270: 7a64 85be 9644 56bc 3507 f63d d589 0dbd
00000280: 0521 033c 232b dc3e 0464 3ebd 2859 133e
00000290: 7482 0abe 4142 b03e 387e 2bbf d20f 133f
000002a0: d94c e93c 57d6 c03e bde0 133e 6f02 9f3e
000002b0: f8cb 6fbd e532 913e 79b7 7e3d 4516 483d
000002c0: 7e86 ac3e f54d cd3d f116 883d 98c7 023f
000002d0: 8808 e33c 2b8e b43e 19c1 a43c 7e6a 863d
000002e0: 9f06 463e ede1 6b3e b405 cabd b34b 073d
000002f0: 526a 213e 189b 6c3e 2142 b53e 33ff 163e
00000300: c6f0 fb3e a49c 163f 17d7 ecbe df5d 1d3d
00000310: 1fd9 5b3e ad2c 9d3d 6149 f13c 6955 a6be
00000320: af05 c5be 78e9 d9bd c280 50be 7201 cfbe
00000330: 7556 3dbd 15a1 ff3c 32b1 b7bd b4c0 963e
00000340: 6ce0 d2bc f6f4 f7bc 0632 8a3e 2e51 e2be
00000350: 523d 083e 0a18 0a3f 80aa e4be f246 3c3e
00000360: 871d 04bf 266a a03e bdce 84bd c2a5 14bf
00000370: dfb5 9d3e ee24 d13e 5388 58bd cc44 093e
00000380: 93e8 5cbf 3001 1cbc 1721 ebbd ec25 bf3e
00000390: 6795 8bbc cf47 2e3e 6d3d 083e 06c2 813b
000003a0: 96e5 403e 00cd 533d 50a0 dfbd 998d e9be
000003b0: ad3f 15be f297 173f f5c7 c1bc fc74 af3e
000003c0: fd9e b73d b790 96bd e3ef 023e 3844 fcbc
000003d0: 3880 1d3e 23dd bbbe efd6 033f 3e0e 113e
000003e0: 7242 2b3d 0f04 4e3e 83d9 203e da03 c93e
000003f0: 7eaa 38bd 0a43 3f3e 4a82 ad3e 4ef2 2a3f
-0.5994748 -0.02153367 -0.13013864 0.071847074 0.0050460435 -0.16045502 -0.24894659 -0.19032034
0.013106117 -0.094046615 -0.31778702 0.023570344 -0.40209687 -0.64410967 0.03312241 -0.23103979
-0.14181101 -0.33191147 -0.1776206 -0.3483643 -0.18438318 0.7498111 -0.33585382 0.040579244
0.046320558 -0.2643351 -0.21716079 -0.1266807 0.24073362 -0.084776655 -0.08473111 -0.028714247
-0.06952608 -0.33204013 0.09635409 -0.024009144 0.050475143 -0.41841504 0.7483716 -0.54593134
-0.04755369 -0.34837833 -0.19340314 -0.40240496 0.102202944 -0.3729556 -0.057945848 -0.038273968
-0.3129844 -0.082602136 0.0149256075 -0.56960016 -0.026096003 -0.30554807 -0.113615796 -0.11130308
-0.14740567 -0.3021816 0.13950762 0.008315571 -0.27585566 -0.3095609 -0.35565078 -0.030796682
-0.4883999 -0.70550036 0.5641448 0.018658163 -0.07041482 -0.22974426 -0.0684921 0.37646368
0.4984765 0.01658939 0.076422006 0.4047414 0.059837688 -0.07112788 0.026473451 -0.34832436
0.07188573 0.14209878 -0.33619943 0.34796456 -0.16000576 -0.4935727 0.42606091 -0.19021276
0.44806248 -0.4167966 0.097901456 0.58858967 -0.2625318 -0.4806019 0.055751715 -0.02700333
0.8897231 -0.011272663 0.11738105 -0.4850061 -0.041237645 -0.17687671 -0.18175964 0.038331613
-0.24833427 0.008559487 0.1747319 0.49578142 0.1270395 -0.5916207 0.023518033 -0.34652266
-0.07196093 -0.050561886 -0.13162541 0.16377626 -0.017731542 0.368535 -0.5037522 -0.09635093
-0.10667042 -0.21426986 -0.03921624 -0.39752483 0.07053577 -0.13028912 -0.4254665 -0.6964362
0.57771295 0.028666131 0.12796164 0.012197949 -0.029323049 0.25440952 0.26473334 0.24227884
-0.07792477 0.019449828 0.19903758 -0.03655076 0.28643927 0.6173127 -0.09939931 0.18290639
0.032815 0.3632676 0.09388135 0.31177914 0.17065938 -0.63838476 0.23231094 -0.13644941
0.021686796 0.28765482 0.37940526 0.08798829 -0.2605322 -0.013077876 0.120130934 -0.034555275
0.008003478 0.4300166 -0.0464821 0.14389479 -0.13526326 0.34425548 -0.6698947 0.57446015
0.028479027 0.37663528 0.144412 0.31056544 -0.05854413 0.28359142 0.062186692 0.048849363
0.3369636 0.10024635 0.06645001 0.51085806 0.027714029 0.35264716 0.020111607 0.065632805
0.19338463 0.23035403 -0.09864369 0.033031177 0.15763214 0.23106039 0.35402015 0.14745788
0.49207133 0.58832765 -0.4625785 0.0384196 0.21469544 0.07674537 0.029453935 -0.32487038
-0.384809 -0.10640234 -0.20361617 -0.4043079 -0.04622503 0.03120474 -0.08969344 0.29443896
-0.025741778 -0.030268174 0.2699129 -0.4420256 0.13304642 0.5394293 -0.4466133 0.18386438
-0.51607555 0.31330985 -0.06484745 -0.58065426 0.3080282 0.40848488 -0.052864384 0.1340515
-0.8629238 -0.0095217675 -0.11480921 0.3733362 -0.017039014 0.1701958 0.13304682 0.003959897
0.1883758 0.051709175 -0.10919249 -0.45615843 -0.14575072 0.59216225 -0.023654917 0.3426894
0.089658715 -0.07351821 0.12786822 -0.030794248 0.15380943 -0.3669215 0.5149984 0.14165589
0.041811414 0.20118736 0.15707974 0.3926075 -0.04508447 0.18677917 0.33888465 0.6677598

net.2.bias f4 [2]
00000000: 3ce8 803e 4e43 62be
0.2517718 -0.22095987
