cartpole_base-none_lr-0.003_g-0.95_seed-42_policy.pt (torch, 6112 bytes, 4 tensors)

net.0.weight f4 [128, 4]
000000 e5 c2 dc 3e 48 d9 0a 3f 4e 9e fb 3e 7b a9 3d 3f
       0.43117443 0.54237795 0.49144214 0.7408673
000010 b0 bd a0 bd ed 5f f9 3d 77 63 20 be 26 1b 90 3e
       -0.0784868 0.121764995 -0.15662943 0.28145713
000020 40 a4 b9 3e 61 d3 a9 be f5 8b 36 3f 41 a8 c5 3d
       0.36258125 -0.33169082 0.7130731 0.096512325
000030 73 08 d5 3e ac d2 6a 3e 9b b4 de 3e 9d 03 90 bd
       0.4160801 0.22931927 0.43497166 -0.07031939
000040 e5 c7 c9 3e 20 dd 51 3e 23 d2 0e 3f d6 a6 0f 3f
       0.3941032 0.20494509 0.55789393 0.56113946
000050 0e ad f0 bd a5 c8 94 3d 8b 56 88 be aa 3c 68 3e
       -0.117517576 0.072648324 -0.26628527 0.22679392
000060 56 1b 9b be d2 3a 89 be d3 fd 5c bf b0 41 42 bf
       -0.30294293 -0.2680269 -0.86324805 -0.7588148
000070 a1 26 45 3d 93 a4 02 bf a4 2f 27 be 3b 44 5d bf
       0.048132543 -0.5103237 -0.16326767 -0.86432236
000080 1c 33 a2 3e fe 45 c1 3d 19 84 f2 3e 2a c4 4d 3f
       0.31679618 0.09437178 0.47366408 0.8037745
000090 82 52 ef bc a2 ed 83 3e 6e 48 d2 3e ad 44 34 3b
       -0.029214147 0.25767237 0.41070884 0.0027506754
0000a0 87 05 72 3e 20 a6 22 3d 81 ea 39 3f 74 1f 48 3f
       0.23634921 0.03970921 0.7262345 0.78172994
0000b0 c3 be d2 3e ef 0a 66 bd ea 6a 87 3f 38 83 f6 3e
       0.41161165 -0.05616277 1.0579503 0.48146987
0000c0 fc f8 09 3e e9 89 df be 75 b7 a0 bf 1f cd 20 bf
       0.13473886 -0.43659905 -1.2555987 -0.6281299
0000d0 4b 3e 8d be 4c 74 92 3e e2 af 20 3e 9e 11 a1 3e
       -0.27586588 0.28604352 0.15692094 0.31458753
0000e0 c5 fd 25 3e 56 11 24 be 87 a9 b6 be 4f 1b 30 bf
       0.16210087 -0.16022238 -0.35676214 -0.6879167
0000f0 e0 ed f2 3c ce fc 9a be 0f b8 14 bf 55 cd 23 bf
       0.029654443 -0.30271 -0.5809335 -0.63985187
000100 a4 43 20 3d 31 df 92 be da 25 ab be 2e eb 22 bf
       0.039127007 -0.28685907 -0.33427316 -0.63640106
000110 99 60 48 be 22 f4 d2 bc 15 b9 9d 3f d4 8a cb 3e
       -0.19568099 -0.025751177 1.2322108 0.39754355
000120 a5 3a d3 3e 10 04 f7 be 89 73 92 bf 53 41 44 bf
       0.4125568 -0.48245287 -1.1441509 -0.76662177
000130 d9 8d 64 be 92 0c 5f 3e d6 62 a3 3d 0c 61 fa 3e
       -0.22319736 0.21782139 0.07977836 0.48902166
000140 99 97 02 be 23 9b 04 be 8f 3d ce 3d a2 d6 b2 be
       -0.12753142 -0.12949805 0.10070335 -0.34929377
000150 a3 4c 41 3e 98 f5 88 be 94 fc b2 be c8 74 2a bf
       0.18876891 -0.26749873 -0.34958327 -0.66584444
000160 c4 f1 94 bd 31 ad 1d 3d d7 e2 ab be b4 83 8b be
       -0.07272676 0.038495246 -0.33571503 -0.2724892
000170 7e a1 6f 3e 56 7b 38 3e 06 51 5f bf b1 4b 20 bf
       0.23401448 0.18015799 -0.87233007 -0.62615496
000180 e7 7f b3 3e 83 e4 25 be 23 8a d1 be 12 89 05 bf
       0.3505852 -0.16200452 -0.40925702 -0.5216228
000190 f9 59 3d be c0 3a 16 bc 9c 14 2d bf b6 cd 28 bf
       -0.18491353 -0.0091692805 -0.6760957 -0.6593889
0001a0 8a 47 f6 bd a4 e3 e6 be 9e 45 3e bf 13 74 de be
       -0.12025364 -0.4509555 -0.7432498 -0.43447933
0001b0 6d b7 5f be 25 07 0c bd b4 9d 75 3e 1c 5d 47 be
       -0.21847315 -0.0341865 0.2398594 -0.19469112
0001c0 b5 a9 8d bc d6 4f 17 bf 90 09 09 bf fd 92 99 be
       -0.017292837 -0.59106195 -0.53530216 -0.29994956
0001d0 be c7 16 bc f9 9d b9 be b5 74 d6 be 58 1f 24 bf
       -0.009202896 -0.36253336 -0.41885915 -0.64110327
0001e0 dd 11 4a 3c b6 41 91 be 3c b1 30 bf f6 f5 1d bf
       0.0123333605 -0.28370446 -0.6902044 -0.6170343
0001f0 57 7a 85 be 76 ea 7d be 47 b1 38 bf dc d8 5b bf
       -0.260699 -0.24796471 -0.72145504 -0.85877776
000200 a1 90 d4 3e 5e 27 d3 3c 4a 40 6e 3f 84 24 96 3e
       0.41516593 0.025775608 0.9306685 0.29324734
000210 60 82 78 be b6 57 71 3e 60 e1 18 bf 32 c5 97 be
       -0.24268484 0.23568615 -0.59718895 -0.29642636
000220 1a de 05 be db d8 3b be 3f de ce bd 5e 00 9a be
       -0.13073006 -0.18344443 -0.10100984 -0.30078405
000230 49 2a d9 3d 5b e4 02 bf f6 73 d5 be 3d df 53 bf
       0.106037684 -0.5112969 -0.41690034 -0.8276251
000240 5a b7 eb bb ea 15 9d 3e 1f f9 89 3f 12 ca 56 3f
       -0.007193488 0.30680782 1.0779151 0.83902085
000250 78 75 96 3e 31 31 c1 be bc 38 f8 3b 72 99 84 be
       0.29386497 -0.37732843 0.0075751226 -0.2589832
000260 f5 97 05 be 2f e3 6c be 51 2c a8 3e b3 f9 0f bf
       -0.13046248 -0.23133539 0.3284631 -0.56240386
000270 a3 89 05 3e ba 49 bc bd 1a 4b a2 be c3 3e e7 be
       0.13040785 -0.0919375 -0.31697923 -0.4516507
000280 8e de c7 3e 6d 37 33 3d 7b fe d1 be 3a 3e 4d bf
       0.39036983 0.04375403 -0.41014466 -0.80173075
000290 b1 5d 97 3e 3c 23 23 3e a3 52 ec 3e e2 a1 3b 3f
       0.29563668 0.1593141 0.46156797 0.7329389
0002a0 a2 1f 95 3d b1 6c 67 be 10 f3 9a be 00 3a 95 bd
       0.07281424 -0.22600056 -0.30263567 -0.07286453
0002b0 7b d5 89 3e f5 45 82 bd 2e 0a 67 be e6 e6 03 be
       0.26920685 -0.063609995 -0.22562477 -0.1288105
0002c0 5d d0 a5 be f8 fe a5 bd 87 ff 50 be 4d b8 28 bf
       -0.3238553 -0.08105272 -0.20409976 -0.6590622
0002d0 ed da e4 3d 71 9b 36 3d 35 18 ff be 66 c0 d5 be
       0.11174569 0.044581834 -0.49823156 -0.4174835
0002e0 49 11 1f 3e 05 ee 96 3e 5e 05 80 3f 49 9d a6 3e
       0.15533938 0.2947847 1.0001638 0.32541874
0002f0 4c de e4 bd a1 92 cd bd 29 4a 52 bf 70 ee f0 be
       -0.11175212 -0.10037733 -0.8214441 -0.47056913
000300 1f f5 73 3e cd ac db 3e fc 8c 35 3f 5d 16 9f 3e
       0.23823975 0.42905274 0.7091825 0.3107175
000310 09 8c 9b 3d b4 a4 04 3e d7 d0 6b 3f 28 e8 18 3f
       0.07595069 0.12953454 0.9211554 0.5972924
000320 67 57 95 be 19 a3 27 3e 23 80 95 3f a6 b8 e8 3e
       -0.29168245 0.1637081 1.1679729 0.45453376
000330 66 70 aa be 39 43 c0 be 9c dc be be c1 25 29 bf
       -0.33288878 -0.37551287 -0.37277687 -0.6607323
000340 bc 03 1f 3d be 14 dc 3d 23 69 02 3f 7d b1 ca 3e
       0.03882192 0.10746144 0.50941676 0.39588538
000350 f6 36 75 be e0 62 88 bc 13 ff c1 bb 47 20 b8 3e
       -0.23946747 -0.01664871 -0.0059203 0.35962126
000360 18 21 94 3d d0 97 04 be 7c d2 53 3e e8 02 43 be
       0.07232875 -0.12948537 0.20685762 -0.19044077
000370 73 0d fb bd 19 72 8e 3e 7c dd 11 bf fc a1 4f be
       -0.122584246 0.27821425 -0.56978583 -0.20276636
000380 74 e4 03 bf 37 34 28 3e 19 8f e5 3e 45 ee 84 3e
       -0.51520467 0.16426168 0.44835737 0.25963035
000390 07 84 90 be c4 6e d8 be 53 f8 f8 be ee da 29 3e
       -0.2822573 -0.42272007 -0.48626956 0.16587421
0003a0 a6 19 71 3e 6f 4f 02 3f aa 5a fb 3e dc 52 b4 3d
       0.2354494 0.50902456 0.4909261 0.08804867
0003b0 47 0e ff 3d b9 94 58 be 88 15 c9 be e9 1f 14 bf
       0.12453895 -0.21150483 -0.3927424 -0.5786119
0003c0 3d ae 6c 3e 16 93 07 be 1a 7b 53 be ea 13 cf be
       0.23113342 -0.13239703 -0.20652428 -0.4044488
0003d0 e6 44 99 3d d0 1b 8f be 5d 8b 51 3e 24 58 e4 3e
       0.074838445 -0.27950907 0.20463319 0.44598496
0003e0 30 bf 75 bd 50 86 f1 3d ff 12 08 bf 51 1a aa be
       -0.059996784 0.11793196 -0.53153986 -0.33223203
0003f0 74 ed 6b be a9 42 96 be 13 e2 94 be b4 74 25 bf
       -0.230398 -0.29347733 -0.2907873 -0.646312

net.0.bias f4 [128]
000000 30 df 9b 3e d8 0b d2 be 0d 69 c7 be 2f 95 94 be
       0.30443716 -0.4102466 -0.38947335 -0.29020068
000010 1a ce 0a 3f 3b 72 17 bf 63 a3 91 3e 74 b6 7c 3d
       0.54220736 -0.59158677 0.28444967 0.06169744
000020 90 91 5b 3e 06 eb 26 3d b4 ea 51 3e e9 d7 c7 3e
       0.21442246 0.04075148 0.20499688 0.39031914
000030 44 e9 80 3e db f0 12 bf 07 2d bd 3d 4a c9 c5 3d
       0.25177968 -0.57398766 0.09237104 0.096575335
000040 db 1d b9 3d 48 d8 8c 3e 36 a3 14 3e 5e c2 05 bf
       0.090388976 0.2750876 0.14515385 -0.52249706
000050 ed b1 b2 be 4d ea fb 3d 1c b3 93 bd 74 15 37 bd
       -0.34901372 0.12300549 -0.07211897 -0.044698194
000060 94 9a 17 bf 6e 65 b8 3d 11 cc 12 be b8 11 87 bd
       -0.5922024 0.09003721 -0.14335658 -0.065951765
000070 0d 41 8e be 9a 4a 10 3c 2c 25 93 3d 31 1f 0f 3e
       -0.27784005 0.008806849 0.07184824 0.13976742
000080 4b 9d e9 3e 88 5f d1 bd 69 25 ea bd c5 46 73 3e
       0.45627818 -0.10223299 -0.11432917 0.23757465
000090 2c 1f 04 3f 48 bc b7 be 5f ed 29 be b7 2d bf bb
       0.51610065 -0.35885835 -0.16594456 -0.005834307
0000a0 37 8d ce bc 3d 50 bd 3e 87 f4 48 be 1b 47 9d be
       -0.02521382 0.3697528 -0.1962453 -0.30718312
0000b0 fc 3c 92 3d f5 57 68 3d d7 b7 c3 3e eb b7 5e 3e
       0.07140538 0.056724507 0.38226196 0.21749847
0000c0 b5 f7 f6 3e 15 a7 10 3f 3f 5e 90 3e d1 30 7b be
       0.4823586 0.56504947 0.28196904 -0.2453034
0000d0 47 8b 98 be 77 b4 11 bf 7e 99 e1 be f4 84 c6 be
       -0.2979376 -0.5691599 -0.44062418 -0.3877331
0000e0 77 6d ff be 96 6d 19 bf 31 6f 92 be 39 06 1f bf
       -0.49888203 -0.5993284 -0.28600457 -0.6211887
0000f0 24 59 b3 be 1c 5c f8 3d 04 58 0e 3d fd 48 43 be
       -0.35028946 0.121269435 0.034751907 -0.19070812
000100 0d e1 9a be a2 21 9f bd c1 f3 af be 17 3c 5d be
       -0.30249825 -0.07770087 -0.34365657 -0.21604954
000110 34 1a 43 3e 4e ab c6 be 0e 4c 86 3d cc db 26 3e
       0.19052964 -0.3880257 0.06557475 0.16294783
000120 b6 62 cc 3d d2 50 3f be d9 5a 86 be 43 ec 76 3d
       0.09979765 -0.18683174 -0.26241186 0.06028391
000130 a2 ef 94 be ef fc b6 3e 05 5e ee 3e e3 24 dc 3e
       -0.29089075 0.35739848 0.46556106 0.42996892
000140 99 83 0a bf f3 3f df 3d 44 47 b1 be f1 c1 bf be
       -0.5410705 0.10900869 -0.34624684 -0.37452653
000150 e0 50 c3 3b 97 7f 95 be f8 88 80 3e 22 fe a2 3e
       0.005960569 -0.29198906 0.251045 0.31834513
000160 6c 98 87 be 5c 1d ec 3e 55 cc cd be 92 67 99 be
       -0.26483476 0.4611615 -0.40194955 -0.2996183
000170 f2 54 85 3e 05 ba 8c be 90 dc b3 be 72 e3 a1 bd
       0.2604137 -0.27485672 -0.35129213 -0.0790471
000180 a8 59 34 3e 56 73 eb 3e 23 10 07 3e cc fe 90 be
       0.17612326 0.45986432 0.1318975 -0.28319395
000190 3d e2 c7 be 23 d3 af 3e ea 24 0a 3e bb 04 ea bd
       -0.39039794 0.34340772 0.13490644 -0.114266835
0001a0 dd c0 60 3d 2a b6 c0 be 5e c7 d9 ba 5f de e7 3e
       0.05487143 -0.3763898 -0.0016615202 0.45286843
0001b0 1b 68 4c 3e cc 55 66 be e0 e6 f4 be ec 95 08 be
       0.19961588 -0.22493666 -0.47832394 -0.1333844
0001c0 e4 70 df 3d 05 a2 01 bf 4f fa 98 bd 76 c7 aa bb
       0.10910204 -0.5063785 -0.074696176 -0.005211766
0001d0 d1 e3 09 bf cd cf e1 3e dd 24 28 be df b3 a7 be
       -0.53863245 0.44103852 -0.16420312 -0.32754418
0001e0 82 23 24 bd 84 16 b2 3e 00 84 5b be ed 6b 87 be
       -0.040072925 0.34782803 -0.21437073 -0.26449528
0001f0 cd 2c e8 be b2 04 bd be e4 a4 11 bf f2 f8 60 be
       -0.4534668 -0.36917645 -0.5689223 -0.21969965

net.2.weight f4 [2, 128]
000000 e7 29 86 be 5c 97 c7 bd 86 90 96 3c 22 61 b0 bd
       -0.26203844 -0.097456664 0.018379461 -0.086122766
000010 7a 84 8e be 5b 3e fb bc 05 90 45 3e 43 c3 4c 3e
       -0.27835447 -0.030669382 0.1929322 0.19996361
000020 47 82 c4 be 20 b3 d7 bc 86 9f a5 be 6b 2c 84 be
       -0.38380644 -0.02633053 -0.3234827 -0.25815138
000030 b3 d7 7d 3e 9c 9c 88 bb ff 2c f1 3d cd 0d 8f 3e
       0.24789314 -0.00416906 0.117761604 0.27940217
000040 25 ed 17 3e 96 05 95 be 36 24 8d 3e 82 f0 84 bc
       0.14836557 -0.29105824 0.2756669 -0.016227964
000050 07 20 7c bd 6d 84 d2 3d 42 6a 54 bd 1c 07 fa 3d
       -0.06155398 0.102791645 -0.051859148 0.12208387
000060 00 7f 6e 3d e3 45 0a 3e 38 16 19 3e 67 9a 2c bd
       0.058226585 0.13503222 0.14949882 -0.042139437
000070 a8 ff 72 3e 8f ab b2 3d 0c a6 9d 3e bf 04 8a 3e
       0.23730338 0.087241285 0.30790746 0.26956746
000080 54 23 c8 bd ce 48 54 3d f6 6a 81 bd 07 88 5f 3e
       -0.09772363 0.051827244 -0.06319229 0.21829234
000090 06 61 c0 be a7 fe 80 bd 94 3f a7 3c 93 aa 77 3d
       -0.37574023 -0.06298571 0.020416059 0.060465407
0000a0 72 bb 12 3e ad c7 83 be 84 4c a9 bc 92 c9 a8 3a
       0.14329317 -0.25738278 -0.020666368 0.0012877455
0000b0 ef c5 73 3d df 00 cb 3d fa 1a 87 be 5d 81 87 3c
       0.059514936 0.099122755 -0.2638777 0.016541177
0000c0 3f 45 54 be 6d 25 86 be 91 0d 72 be 06 2f bd 3e
       -0.2072954 -0.2620043 -0.23637988 0.3694994
0000d0 d1 75 1d be 2c 12 49 3d d4 aa 8d 3c 81 ce 9d 3c
       -0.15376975 0.049089596 0.017293371 0.019263508
0000e0 3b ac f6 3d cd 7c 25 3d 6a 15 33 be 7d 38 81 3e
       0.12044569 0.040402222 -0.17488638 0.2523841
0000f0 37 94 e0 3d f1 1b ed bd b4 89 b2 3c 3b 95 1a 3e
       0.1096577 -0.11577595 0.021794178 0.1509599
000100 4d a9 92 bd c1 06 96 bd 23 dc 0e bd 09 47 bf 3d
       -0.07161198 -0.07325507 -0.034877907 0.09339721
000110 a1 0e 17 be 96 6a a0 3d e8 96 70 3e 6d a0 5c bd
       -0.14751674 0.0783283 0.23495066 -0.05386393
000120 55 c9 65 3e a0 10 a3 bb 0b 12 8f 3e 94 23 c7 3e
       0.22440083 -0.004976347 0.27943453 0.3889433
000130 9c 56 16 bc 6f 98 07 bf 48 3a d1 be 8b 9f 18 be
       -0.009175923 -0.5296697 -0.40864778 -0.14904611
000140 3f b1 8b bd d7 cf 9a 3e f3 01 c3 3d 2a 75 59 3e
       -0.068209164 0.30236694 0.09521856 0.21236101
000150 4f 7e 61 3c 06 4b ba 3e 32 c0 a5 3d 15 6a 02 bf
       0.0137630245 0.36385363 0.08093299 -0.5094312
000160 32 c1 49 be 4d cf a5 be 3c 5a a0 3d d4 2f ab bd
       -0.19702604 -0.3238472 0.07829711 -0.08358732
000170 f2 ff e0 be 34 23 a9 3e 37 30 3c 3d 86 7b ed bd
       -0.4394527 0.3303467 0.04594442 -0.11595826
000180 1f 51 95 bc da d6 d3 bd b3 5a ae 3d 42 c7 35 3e
       -0.018227158 -0.10343714 0.08513393 0.17751792
000190 f7 c6 26 3d 85 5a 22 3e 86 ff 1c 3e 42 a1 b0 3d
       0.04071709 0.15854843 0.1533185 0.086245075
0001a0 6d 8d c3 3d 63 0f 28 bc 86 b4 17 3e c0 32 70 be
       0.09548459 -0.010257575 0.14814958 -0.2345686
0001b0 65 bc 05 bf 4e 4a 23 bd 68 d8 54 3d 19 67 06 be
       -0.5224059 -0.039865784 0.051964194 -0.13125266
0001c0 56 8c 44 3e aa fd 2a 3d a4 c8 bf 3d e0 af 8d 3d
       0.19194159 0.04174582 0.09364441 0.06918311
0001d0 53 c7 4d 3d 12 d5 9d be 1b 01 66 be d6 48 15 3e
       0.05023892 -0.30826622 -0.22461359 0.14578566
0001e0 e6 99 8c bd d7 45 ed bd eb 94 19 be eb e2 8f bc
       -0.06865291 -0.115855865 -0.14998214 -0.017564258
0001f0 b2 5a 63 be 96 d4 d2 3b 30 98 27 3d 27 47 1c 3e
       -0.22202566 0.0064340336 0.04091662 0.15261517
000200 af 8a 64 3e 89 e9 d0 3d e9 99 bd 3d 96 4a 35 3e
       0.22318529 0.10200793 0.09257872 0.17704234
000210 66 47 0e 3e 1d 04 4e bd 81 b4 35 be 37 e9 6f be
       0.13894424 -0.05029689 -0.17744638 -0.23428808
000220 06 91 a0 3e 6b 51 ce bb 7a 78 ce 3e b9 4a 4a 3e
       0.31360644 -0.006296327 0.4032629 0.19755067
000230 dd 3c 26 be ca 1d ce bc 23 ad 9d bd e3 5c 35 be
       -0.16234155 -0.025160689 -0.07699039 -0.17711215
000240 a0 83 56 be d9 c3 1c 3e a4 8b 79 be 27 3b df 3d
       -0.20948648 0.15309085 -0.24369675 0.10899954
000250 c0 a1 48 bd 92 99 20 3b 05 90 99 bd a4 2e 83 bc
       -0.04898238 0.0024505598 -0.07498173 -0.01601345
000260 43 e0 9d 3c ef 51 52 be ee 77 5f bd e5 df 1f bd
       0.019271975 -0.20539068 -0.054557733 -0.03903188
000270 ff 0e 73 be e6 12 30 be 4d cc c2 be 4d 77 13 be
       -0.2373619 -0.17194709 -0.38046494 -0.14400978
000280 bc 0b 2c 3e 97 dd e7 3c 70 d9 a3 bd 50 a2 cb bd
       0.16801351 0.028303904 -0.08000457 -0.09943068
000290 0c 39 a8 3e 1b 68 bd bc 8e df b3 bd 44 43 01 bd
       0.32856023 -0.02312093 -0.08782874 -0.03155829
0002a0 14 58 8c bb 03 e6 5c 3e f2 30 98 bd 9b c5 2f 3d
       -0.0042829607 0.21572118 -0.074312106 0.04291306
0002b0 79 d3 82 bd ce e6 7e 3c be 54 71 3e 64 1a 84 bd
       -0.063879915 0.015557958 0.23567483 -0.06450346
0002c0 4d 29 2f 3e 82 b0 95 3e 67 f1 76 3e fa d8 62 be
       0.17105599 0.29236227 0.24115525 -0.22153082
0002d0 d6 e1 58 3e d7 98 ec 3d b4 bc 4d bd 88 5d 42 bc
       0.211799 0.115525894 -0.05022879 -0.01186312
0002e0 82 e5 99 bd a8 83 1b 3d 47 bf 36 3e 6a e5 62 be
       -0.07514478 0.037967354 0.17846404 -0.22157827
0002f0 10 5e 42 bc 62 30 2f 3d ba 4b 2d bc 71 cb 6a be
       -0.011863247 0.04277075 -0.010577137 -0.22929169
000300 3f 22 86 3c b3 9b 40 bd da 11 07 3c 76 54 b1 bc
       0.016373752 -0.047023486 0.008244002 -0.02164672
000310 5d b2 3b 3c 75 57 7c bd 44 6c 64 be e3 78 3b 3d
       0.011456099 -0.061606843 -0.22306925 0.045769583
000320 48 be 17 be 8a 42 2d be 8e f2 85 be 5f 31 ca be
       -0.1481868 -0.16919914 -0.26161617 -0.39490792
000330 1e 40 90 3c 09 58 d5 3e b7 8a c7 3e 07 50 db 3d
       0.017608698 0.41668728 0.3897302 0.107086234
000340 cd 43 b2 3d a9 9a 2f be 04 7e 00 bd 6e 6a 35 be
       0.08704338 -0.17148842 -0.031370178 -0.17716381
000350 5f be 04 be e9 ab 9a be 5f 08 bf bd cd 2d f6 3e
       -0.12963246 -0.30209282 -0.093277685 0.48081818
000360 78 76 2e 3e 8a c8 9f 3e 9d 6a 85 3d 27 b2 ac 3d
       0.1703738 0.31207687 0.065144755 0.08432417
000370 d1 30 c3 3e 99 c2 b0 be 19 4d a5 3d ad 3a 16 3e
       0.3812318 -0.34523466 0.08071346 0.1467082
000380 a6 d5 b8 bd 1c d3 e6 3d ff 0b eb 3c 3b 71 97 bd
       -0.09025125 0.11270735 0.028692244 -0.07394644
000390 56 13 91 3c 21 4f 60 be 50 90 08 be 08 cd a8 3d
       0.017709415 -0.21905185 -0.13336301 0.082422316
0003a0 de 1f 05 be 09 b7 b6 bc d5 61 d6 bd 0d b3 12 3e
       -0.13000438 -0.022304075 -0.10467879 0.14326115
0003b0 cd be 06 3f 59 f3 e0 3d 38 eb 08 3d a2 9f 13 3e
       0.5263489 0.10983915 0.033427447 0.14416364
0003c0 87 5d 43 be 79 63 d4 bb 88 71 b0 3a 3f 97 88 bd
       -0.19078647 -0.0064815846 0.0013461569 -0.06669473
0003d0 ac 80 bf 3b ab 4d dd 3e 26 1a 6d 3e a1 0d a9 bd
       0.0058441963 0.43223318 0.23154506 -0.08254553
0003e0 76 2f 4e bd a1 e5 e2 3d 75 4d 00 3e ab 34 81 bd
       -0.05033823 0.110789545 0.12529548 -0.06308874
0003f0 7e c4 f6 3d 5c cf 42 3d 77 be 40 3d 6a d5 54 be
       0.12049197 0.047561035 0.04705664 -0.20784536

net.2.bias f4 [2]
000000 02 cd 1a be fe e1 aa 3d
       -0.15117267 0.08343886
